…
Installing collected packages: argparse
Successfully installed argparse-1.4.0
-----Hyperparameters-----
parm_num_classes: 101
parm_feature_size: 200
parm_emb_size: 64
parm_word_size: 5
parm_num_heads: 32
parm_num_encoders: 2
parm_dense_layer_1: 1024
parm_dense_layer_2: 512
N_EPOCHS: 120
LR: 0.01
----------
dataset: ../../dataset/dataset_100_200.npz
(101520, 200, 5) (101520,)
(25380, 200, 5) (25380,)
----------------------------------------------------------------
        Layer (type)               Output Shape         Param #
================================================================
            Linear-1              [-1, 200, 64]             384
 NetPatchEmbedding-2              [-1, 201, 64]               0
         LayerNorm-3              [-1, 201, 64]             128
            Linear-4              [-1, 201, 64]           4,160
            Linear-5              [-1, 201, 64]           4,160
            Linear-6              [-1, 201, 64]           4,160
           Dropout-7         [-1, 32, 201, 201]               0
            Linear-8              [-1, 201, 64]           4,160
NetMultiHeadAttention-9              [-1, 201, 64]               0
          Dropout-10              [-1, 201, 64]               0
   NetResidualAdd-11              [-1, 201, 64]               0
        LayerNorm-12              [-1, 201, 64]             128
           Linear-13             [-1, 201, 256]          16,640
             GELU-14             [-1, 201, 256]               0
          Dropout-15             [-1, 201, 256]               0
           Linear-16              [-1, 201, 64]          16,448
          Dropout-17              [-1, 201, 64]               0
   NetResidualAdd-18              [-1, 201, 64]               0
        LayerNorm-19              [-1, 201, 64]             128
           Linear-20              [-1, 201, 64]           4,160
           Linear-21              [-1, 201, 64]           4,160
           Linear-22              [-1, 201, 64]           4,160
          Dropout-23         [-1, 32, 201, 201]               0
           Linear-24              [-1, 201, 64]           4,160
NetMultiHeadAttention-25              [-1, 201, 64]               0
          Dropout-26              [-1, 201, 64]               0
   NetResidualAdd-27              [-1, 201, 64]               0
        LayerNorm-28              [-1, 201, 64]             128
           Linear-29             [-1, 201, 256]          16,640
             GELU-30             [-1, 201, 256]               0
          Dropout-31             [-1, 201, 256]               0
           Linear-32              [-1, 201, 64]          16,448
          Dropout-33              [-1, 201, 64]               0
   NetResidualAdd-34              [-1, 201, 64]               0
           Reduce-35                   [-1, 64]               0
        LayerNorm-36                   [-1, 64]             128
           Linear-37                 [-1, 1024]          66,560
           Linear-38                  [-1, 512]         524,800
           Linear-39                  [-1, 101]          51,813
================================================================
Total params: 743,653
Trainable params: 743,653
Non-trainable params: 0
----------------------------------------------------------------
Input size (MB): 0.00
Forward/backward pass size (MB): 24.65
Params size (MB): 2.84
Estimated Total Size (MB): 27.49
----------------------------------------------------------------
Using device:  cuda (NVIDIA A100-PCIE-40GB)
…
Training: 100%|â–ˆâ–ˆâ–ˆâ–ˆâ–ˆâ–ˆâ–ˆâ–ˆâ–ˆâ–ˆ| 120/120 [1:18:28<00:00, 39.23s/it]
Test loss: 0.06
Test accuracy: 98.01%
-----Hyperparameters-----
parm_num_classes: 201
parm_feature_size: 200
parm_emb_size: 64
parm_word_size: 5
parm_num_heads: 32
parm_num_encoders: 2
parm_dense_layer_1: 1024
parm_dense_layer_2: 512
N_EPOCHS: 120
LR: 0.01
----------
dataset: ../../dataset/dataset_200_200.npz
(203296, 200, 5) (203296,)
(50824, 200, 5) (50824,)
----------------------------------------------------------------
        Layer (type)               Output Shape         Param #
================================================================
            Linear-1              [-1, 200, 64]             384
 NetPatchEmbedding-2              [-1, 201, 64]               0
         LayerNorm-3              [-1, 201, 64]             128
            Linear-4              [-1, 201, 64]           4,160
            Linear-5              [-1, 201, 64]           4,160
            Linear-6              [-1, 201, 64]           4,160
           Dropout-7         [-1, 32, 201, 201]               0
            Linear-8              [-1, 201, 64]           4,160
NetMultiHeadAttention-9              [-1, 201, 64]               0
          Dropout-10              [-1, 201, 64]               0
   NetResidualAdd-11              [-1, 201, 64]               0
        LayerNorm-12              [-1, 201, 64]             128
           Linear-13             [-1, 201, 256]          16,640
             GELU-14             [-1, 201, 256]               0
          Dropout-15             [-1, 201, 256]               0
           Linear-16              [-1, 201, 64]          16,448
          Dropout-17              [-1, 201, 64]               0
   NetResidualAdd-18              [-1, 201, 64]               0
        LayerNorm-19              [-1, 201, 64]             128
           Linear-20              [-1, 201, 64]           4,160
           Linear-21              [-1, 201, 64]           4,160
           Linear-22              [-1, 201, 64]           4,160
          Dropout-23         [-1, 32, 201, 201]               0
           Linear-24              [-1, 201, 64]           4,160
NetMultiHeadAttention-25              [-1, 201, 64]               0
          Dropout-26              [-1, 201, 64]               0
   NetResidualAdd-27              [-1, 201, 64]               0
        LayerNorm-28              [-1, 201, 64]             128
           Linear-29             [-1, 201, 256]          16,640
             GELU-30             [-1, 201, 256]               0
          Dropout-31             [-1, 201, 256]               0
           Linear-32              [-1, 201, 64]          16,448
          Dropout-33              [-1, 201, 64]               0
   NetResidualAdd-34              [-1, 201, 64]               0
           Reduce-35                   [-1, 64]               0
        LayerNorm-36                   [-1, 64]             128
           Linear-37                 [-1, 1024]          66,560
           Linear-38                  [-1, 512]         524,800
           Linear-39                  [-1, 201]         103,113
================================================================
Total params: 794,953
Trainable params: 794,953
Non-trainable params: 0
----------------------------------------------------------------
Input size (MB): 0.00
Forward/backward pass size (MB): 24.65
Params size (MB): 3.03
Estimated Total Size (MB): 27.68
----------------------------------------------------------------
Using device:  cuda (NVIDIA A100-PCIE-40GB)
…
Training: 100%|â–ˆâ–ˆâ–ˆâ–ˆâ–ˆâ–ˆâ–ˆâ–ˆâ–ˆâ–ˆ| 120/120 [2:36:54<00:00, 78.45s/it]
Test loss: 0.08
Test accuracy: 97.87%
-----Hyperparameters-----
parm_num_classes: 301
parm_feature_size: 200
parm_emb_size: 64
parm_word_size: 5
parm_num_heads: 32
parm_num_encoders: 2
parm_dense_layer_1: 1024
parm_dense_layer_2: 512
N_EPOCHS: 120
LR: 0.01
----------
dataset: ../../dataset/dataset_300_200.npz
(304374, 200, 5) (304374,)
(76094, 200, 5) (76094,)
----------------------------------------------------------------
        Layer (type)               Output Shape         Param #
================================================================
            Linear-1              [-1, 200, 64]             384
 NetPatchEmbedding-2              [-1, 201, 64]               0
         LayerNorm-3              [-1, 201, 64]             128
            Linear-4              [-1, 201, 64]           4,160
            Linear-5              [-1, 201, 64]           4,160
            Linear-6              [-1, 201, 64]           4,160
           Dropout-7         [-1, 32, 201, 201]               0
            Linear-8              [-1, 201, 64]           4,160
NetMultiHeadAttention-9              [-1, 201, 64]               0
          Dropout-10              [-1, 201, 64]               0
   NetResidualAdd-11              [-1, 201, 64]               0
        LayerNorm-12              [-1, 201, 64]             128
           Linear-13             [-1, 201, 256]          16,640
             GELU-14             [-1, 201, 256]               0
          Dropout-15             [-1, 201, 256]               0
           Linear-16              [-1, 201, 64]          16,448
          Dropout-17              [-1, 201, 64]               0
   NetResidualAdd-18              [-1, 201, 64]               0
        LayerNorm-19              [-1, 201, 64]             128
           Linear-20              [-1, 201, 64]           4,160
           Linear-21              [-1, 201, 64]           4,160
           Linear-22              [-1, 201, 64]           4,160
          Dropout-23         [-1, 32, 201, 201]               0
           Linear-24              [-1, 201, 64]           4,160
NetMultiHeadAttention-25              [-1, 201, 64]               0
          Dropout-26              [-1, 201, 64]               0
   NetResidualAdd-27              [-1, 201, 64]               0
        LayerNorm-28              [-1, 201, 64]             128
           Linear-29             [-1, 201, 256]          16,640
             GELU-30             [-1, 201, 256]               0
          Dropout-31             [-1, 201, 256]               0
           Linear-32              [-1, 201, 64]          16,448
          Dropout-33              [-1, 201, 64]               0
   NetResidualAdd-34              [-1, 201, 64]               0
           Reduce-35                   [-1, 64]               0
        LayerNorm-36                   [-1, 64]             128
           Linear-37                 [-1, 1024]          66,560
           Linear-38                  [-1, 512]         524,800
           Linear-39                  [-1, 301]         154,413
================================================================
Total params: 846,253
Trainable params: 846,253
Non-trainable params: 0
----------------------------------------------------------------
Input size (MB): 0.00
Forward/backward pass size (MB): 24.65
Params size (MB): 3.23
Estimated Total Size (MB): 27.88
----------------------------------------------------------------
Using device:  cuda (NVIDIA A100-PCIE-40GB)
…
Training: 100%|â–ˆâ–ˆâ–ˆâ–ˆâ–ˆâ–ˆâ–ˆâ–ˆâ–ˆâ–ˆ| 120/120 [3:55:00<00:00, 117.51s/it]
Test loss: 0.12
Test accuracy: 96.42%
-----Hyperparameters-----
parm_num_classes: 401
parm_feature_size: 200
parm_emb_size: 64
parm_word_size: 5
parm_num_heads: 32
parm_num_encoders: 2
parm_dense_layer_1: 1024
parm_dense_layer_2: 512
N_EPOCHS: 120
LR: 0.01
----------
dataset: ../../dataset/dataset_400_200.npz
(405598, 200, 5) (405598,)
(101400, 200, 5) (101400,)
----------------------------------------------------------------
        Layer (type)               Output Shape         Param #
================================================================
            Linear-1              [-1, 200, 64]             384
 NetPatchEmbedding-2              [-1, 201, 64]               0
         LayerNorm-3              [-1, 201, 64]             128
            Linear-4              [-1, 201, 64]           4,160
            Linear-5              [-1, 201, 64]           4,160
            Linear-6              [-1, 201, 64]           4,160
           Dropout-7         [-1, 32, 201, 201]               0
            Linear-8              [-1, 201, 64]           4,160
NetMultiHeadAttention-9              [-1, 201, 64]               0
          Dropout-10              [-1, 201, 64]               0
   NetResidualAdd-11              [-1, 201, 64]               0
        LayerNorm-12              [-1, 201, 64]             128
           Linear-13             [-1, 201, 256]          16,640
             GELU-14             [-1, 201, 256]               0
          Dropout-15             [-1, 201, 256]               0
           Linear-16              [-1, 201, 64]          16,448
          Dropout-17              [-1, 201, 64]               0
   NetResidualAdd-18              [-1, 201, 64]               0
        LayerNorm-19              [-1, 201, 64]             128
           Linear-20              [-1, 201, 64]           4,160
           Linear-21              [-1, 201, 64]           4,160
           Linear-22              [-1, 201, 64]           4,160
          Dropout-23         [-1, 32, 201, 201]               0
           Linear-24              [-1, 201, 64]           4,160
NetMultiHeadAttention-25              [-1, 201, 64]               0
          Dropout-26              [-1, 201, 64]               0
   NetResidualAdd-27              [-1, 201, 64]               0
        LayerNorm-28              [-1, 201, 64]             128
           Linear-29             [-1, 201, 256]          16,640
             GELU-30             [-1, 201, 256]               0
          Dropout-31             [-1, 201, 256]               0
           Linear-32              [-1, 201, 64]          16,448
          Dropout-33              [-1, 201, 64]               0
   NetResidualAdd-34              [-1, 201, 64]               0
           Reduce-35                   [-1, 64]               0
        LayerNorm-36                   [-1, 64]             128
           Linear-37                 [-1, 1024]          66,560
           Linear-38                  [-1, 512]         524,800
           Linear-39                  [-1, 401]         205,713
================================================================
Total params: 897,553
Trainable params: 897,553
Non-trainable params: 0
----------------------------------------------------------------
Input size (MB): 0.00
Forward/backward pass size (MB): 24.65
Params size (MB): 3.42
Estimated Total Size (MB): 28.08
----------------------------------------------------------------
Using device:  cuda (NVIDIA A100-PCIE-40GB)
…
Training: 100%|â–ˆâ–ˆâ–ˆâ–ˆâ–ˆâ–ˆâ–ˆâ–ˆâ–ˆâ–ˆ| 120/120 [5:13:23<00:00, 156.69s/it]
Test loss: 0.13
Test accuracy: 96.29%
-----Hyperparameters-----
parm_num_classes: 500
parm_feature_size: 200
parm_emb_size: 64
parm_word_size: 5
parm_num_heads: 32
parm_num_encoders: 2
parm_dense_layer_1: 1024
parm_dense_layer_2: 512
N_EPOCHS: 120
LR: 0.01
----------
dataset: ../../dataset/dataset_500_200.npz
(506152, 200, 5) (506152,)
(126539, 200, 5) (126539,)
----------------------------------------------------------------
        Layer (type)               Output Shape         Param #
================================================================
            Linear-1              [-1, 200, 64]             384
 NetPatchEmbedding-2              [-1, 201, 64]               0
         LayerNorm-3              [-1, 201, 64]             128
            Linear-4              [-1, 201, 64]           4,160
            Linear-5              [-1, 201, 64]           4,160
            Linear-6              [-1, 201, 64]           4,160
           Dropout-7         [-1, 32, 201, 201]               0
            Linear-8              [-1, 201, 64]           4,160
NetMultiHeadAttention-9              [-1, 201, 64]               0
          Dropout-10              [-1, 201, 64]               0
   NetResidualAdd-11              [-1, 201, 64]               0
        LayerNorm-12              [-1, 201, 64]             128
           Linear-13             [-1, 201, 256]          16,640
             GELU-14             [-1, 201, 256]               0
          Dropout-15             [-1, 201, 256]               0
           Linear-16              [-1, 201, 64]          16,448
          Dropout-17              [-1, 201, 64]               0
   NetResidualAdd-18              [-1, 201, 64]               0
        LayerNorm-19              [-1, 201, 64]             128
           Linear-20              [-1, 201, 64]           4,160
           Linear-21              [-1, 201, 64]           4,160
           Linear-22              [-1, 201, 64]           4,160
          Dropout-23         [-1, 32, 201, 201]               0
           Linear-24              [-1, 201, 64]           4,160
NetMultiHeadAttention-25              [-1, 201, 64]               0
          Dropout-26              [-1, 201, 64]               0
   NetResidualAdd-27              [-1, 201, 64]               0
        LayerNorm-28              [-1, 201, 64]             128
           Linear-29             [-1, 201, 256]          16,640
             GELU-30             [-1, 201, 256]               0
          Dropout-31             [-1, 201, 256]               0
           Linear-32              [-1, 201, 64]          16,448
          Dropout-33              [-1, 201, 64]               0
   NetResidualAdd-34              [-1, 201, 64]               0
           Reduce-35                   [-1, 64]               0
        LayerNorm-36                   [-1, 64]             128
           Linear-37                 [-1, 1024]          66,560
           Linear-38                  [-1, 512]         524,800
           Linear-39                  [-1, 500]         256,500
================================================================
Total params: 948,340
Trainable params: 948,340
Non-trainable params: 0
----------------------------------------------------------------
Input size (MB): 0.00
Forward/backward pass size (MB): 24.65
Params size (MB): 3.62
Estimated Total Size (MB): 28.27
----------------------------------------------------------------
Using device:  cuda (NVIDIA A100-PCIE-40GB)
…
